{"modelTopology":{"class_name":"Sequential","config":[{"class_name":"LSTM","config":{"units":128,"activation":"tanh","recurrent_activation":"hard_sigmoid","use_bias":true,"kernel_initializer":{"class_name":"VarianceScaling","config":{"scale":1,"mode":"fan_avg","distribution":"normal","seed":null}},"recurrent_initializer":{"class_name":"Orthogonal","config":{"gain":1,"seed":null}},"bias_initializer":{"class_name":"Zeros","config":{}},"unit_forget_bias":null,"kernel_regularizer":null,"recurrent_regularizer":null,"bias_regularizer":null,"activity_regularizer":null,"kernel_constraint":null,"recurrent_constraint":null,"bias_constraint":null,"dropout":0,"recurrent_dropout":0,"implementation":null,"return_sequences":false,"return_state":false,"go_backwards":false,"stateful":false,"unroll":false,"name":"lstm_LSTM1","trainable":true,"batch_input_shape":[null,40,84],"dtype":"float32"}},{"class_name":"Dense","config":{"units":84,"activation":"softmax","use_bias":true,"kernel_initializer":{"class_name":"VarianceScaling","config":{"scale":1,"mode":"fan_avg","distribution":"normal","seed":null}},"bias_initializer":{"class_name":"Zeros","config":{}},"kernel_regularizer":null,"bias_regularizer":null,"activity_regularizer":null,"kernel_constraint":null,"bias_constraint":null,"name":"dense_Dense1","trainable":true}}],"keras_version":"tfjs-layers 0.7.4","backend":"tensor_flow.js"},"weightsManifest":[{"paths":["./nietzsche.weights.bin"],"weights":[{"name":"lstm_LSTM1/kernel","shape":[84,512],"dtype":"float32"},{"name":"lstm_LSTM1/recurrent_kernel","shape":[128,512],"dtype":"float32"},{"name":"lstm_LSTM1/bias","shape":[512],"dtype":"float32"},{"name":"dense_Dense1/kernel","shape":[128,84],"dtype":"float32"},{"name":"dense_Dense1/bias","shape":[84],"dtype":"float32"}]}]}